credit_risk_model.tflite (tflite, 17184 bytes, 7 tensors)

arith.constant f4 [16, 32]
0	0x8a996a02	-1.477324e-32
1	0x8a00ef24	-6.207953e-33
2	0x0bbfbb28	7.3852125e-32
3	0x8a7f2391	-1.2284493e-32
4	0x8907564a	-1.6290607e-33
5	0x0993cb8a	3.558037e-33
6	0x8b0a40f1	-2.662669e-32
7	0x0a09b05c	6.6294796e-33
8	0x0b846592	5.0997377e-32
9	0x0ad23365	2.0241597e-32
10	0x0993fbf9	3.5625917e-33
11	0x8a10bd85	-6.9689925e-33
12	0x0aa7067b	1.6083953e-32
13	0x097363a0	2.9296904e-33
14	0x0a40adff	9.277189e-33
15	0x8ad044da	-2.005557e-32
16	0x8afca7c3	-2.4329822e-32
17	0x86e10696	-8.464527e-35
18	0x8abacca3	-1.7988124e-32
19	0x09087eba	1.6429991e-33
20	0x09a2b7d9	3.917297e-33
21	0x0acbfd5b	1.964349e-32
22	0x0a0e77b4	6.859565e-33
23	0x0a4788c3	9.6072235e-33
24	0x0b6cf09d	4.5632964e-32
25	0x0b01fadd	2.5033225e-32
26	0x8ad8fd94	-2.0895429e-32
27	0x8a4b3e42	-9.785804e-33
28	0x0aa22a28	1.561589e-32
29	0x0b583595	4.1640397e-32
30	0x8a95ab7b	-1.4412682e-32
31	0x08f08300	1.44752725e-33
32	0x3f0a645a	0.54059374
33	0xbd4bf490	-0.04979378
34	0x3f748f1b	0.9553086
35	0xbbbf7313	-0.0058425753
36	0xbe1ee33d	-0.15516372
37	0x3dba5f3d	0.091001965
38	0x3e97b27d	0.29628363
39	0xbc59c450	-0.013291433
40	0x37ad90c5	2.069062e-05
41	0xbe32643e	-0.17421052
42	0x3e988fb2	0.2979713
43	0xbe7b9708	-0.24569333
44	0xbdbe55e9	-0.0929373
45	0xbccd7b5e	-0.02508324
46	0xbb1ebe19	-0.0024222194
47	0xbda6caf3	-0.08144178
48	0xbf2eec8e	-0.68329704
49	0xbdb29a9e	-0.08720897
50	0x3f09e59c	0.5386598
51	0xbcd097a8	-0.02546294
52	0xbd44a6f9	-0.0480108
53	0x3ee43d09	0.44577816
54	0x3d989084	0.07449439
55	0x3f8e1355	1.109965
56	0x3ec6e421	0.38845924
57	0x3ed77dc5	0.42088142
58	0x3e4c3dc5	0.19945438
59	0x3f15f477	0.5857615
60	0x3eef38e7	0.467231
61	0x3fabaeee	1.3412759
62	0x3e40a860	0.1881423
63	0xbd7ab887	-0.061211135
64	0xbd877c0f	-0.06615459
65	0x3cb07ad7	0.02154295
66	0xbf97a13c	-1.184608
67	0x3d264f43	0.040602934
68	0xbdc18124	-0.0944846
69	0x3d8817bb	0.06645151
70	0xbdf739cf	-0.12071573
71	0x3cbd3f04	0.023101337
72	0x3b75cb99	0.0037505387
73	0x3f0950b4	0.5363877
74	0xbf46a479	-0.77594715
75	0x3e8605fa	0.26176435
76	0x3eb90d0a	0.3614276
77	0xbd291439	-0.04127905
78	0xbda0f4ac	-0.078591675
79	0xbe692a78	-0.22770107
80	0xbe75c06f	-0.23999189
81	0x3cb1e559	0.021715807
82	0xbf17493a	-0.5909611
83	0x3d3860a3	0.045014035
84	0x3af7f6c9	0.0018918152
85	0xbf35cc83	-0.71015185
86	0xbe37343e	-0.17891023
87	0xbd22f263	-0.03978194
88	0xbe78f671	-0.2431276
89	0xbe7f0e2e	-0.24907753
90	0xbf213f2e	-0.6298703
91	0xbc93e45b	-0.018053224
92	0xbef959b7	-0.4870126
93	0xbe17714c	-0.14789313
94	0x3ef96ea2	0.4871722
95	0x3e02a621	0.12758686
96	0x3e02ee5e	0.12786242
97	0xbd899484	-0.0671778
98	0xbd8db6ba	-0.06919618
99	0xbead1754	-0.3380686
100	0x3e92ecfc	0.2869643
101	0x3e53a52e	0.2066848
102	0xbe5b56dc	-0.21419853
103	0xbe21c49a	-0.15797654
104	0x3ab7b70d	0.0014016345
105	0x3f30bd46	0.6903881
106	0xbd09301b	-0.033493143
107	0xbee1517d	-0.44007483
108	0xbefd7b02	-0.4950791
109	0xbdbb72a3	-0.091527246
110	0x3dcc7f5b	0.09985229
111	0xbe55fcf9	-0.20897283
112	0xbd8142b9	-0.063115545
113	0x3e443629	0.19161285
114	0xbd4dcfab	-0.050246876
115	0xbd9606ca	-0.07325514
116	0x3e02b708	0.12765133
117	0x3e386cc0	0.18010235
118	0xbe43dc10	-0.19126916
119	0x3f0ed8d6	0.55799615
120	0xbf68e494	-0.9097378
121	0xbe592542	-0.21205619
122	0xbea09876	-0.31366318
123	0x3e866554	0.26249182
124	0xbe13be7a	-0.1442813
125	0x3e99d59e	0.3004579
126	0x3e424661	0.1897216
127	0xbd46106a	-0.048355497
128	0x3da3e128	0.080019295
129	0xbf0ef3b5	-0.5584062
130	0x3ef7502c	0.48303354
131	0xbf7eefca	-0.9958464
132	0xbf86e38b	-1.0538191
133	0xbf9e9482	-1.2389071
134	0xbd926a04	-0.07149127
135	0xbef5a6f8	-0.4797895
136	0xbb7fc40d	-0.0039026767
137	0x3e6bb560	0.23018408
138	0xbcdab88b	-0.026699325
139	0xbf70129b	-0.9377839
140	0xbf946158	-1.1592207
141	0x3ed7c496	0.4214217
142	0xbe90370c	-0.28166997
143	0x3ccd4add	0.025060112
144	0x3e93bba5	0.288541
145	0xbf71ee25	-0.94504005
146	0xbd2b080d	-0.041755725
147	0x3cb1baa1	0.021695437
148	0xbf8999b8	-1.0750036
149	0x3d59d3a2	0.053180344
150	0xbdf54497	-0.11975973
151	0xbc9f9c44	-0.019483693
152	0x3e524187	0.20532809
153	0xbdcce962	-0.10005452
154	0xbd9b727f	-0.07590198
155	0x3dee633e	0.11640023
156	0x3e3ce6ec	0.18447465
157	0x3d9bc81f	0.076065294
158	0xbe9fd1e5	-0.31214824
159	0xbd60ddcd	-0.054899026
160	0x3fd1dd8a	1.6395733
161	0xbd3870d1	-0.045029465
162	0xbeb83600	-0.359787
163	0xbdd6ae5c	-0.10482475
164	0x3c9d927e	0.019234892
165	0xba663bfb	-0.00087827415
166	0xbdbcdc32	-0.092216864
167	0x3bc0dde9	0.0058858288
168	0x3b514da3	0.0031937144
169	0x3f3465c8	0.70467806
170	0xbed1a877	-0.4094884
171	0x3d247524	0.040150777
172	0xbe0dfba7	-0.13865529
173	0xbcb62354	-0.022233643
174	0x3da7858e	0.081797704
175	0xbf816bd9	-1.0111037
176	0xbf7efb45	-0.99602157
177	0x3bd8b8fc	0.0066138487
178	0xbe7f4b39	-0.24931039
179	0xbee48dcb	-0.4463943
180	0x3d9b71c2	0.07590057
181	0xbf12dfe8	-0.57372904
182	0xbf249f39	-0.64305454
183	0xbeb0b0fa	-0.34510022
184	0x3d0ce512	0.034398146
185	0xbd017749	-0.0316079
186	0xbf301ddd	-0.6879557
187	0xbf438f9d	-0.7639101
188	0xbe0f17c8	-0.13973916
189	0xbf687336	-0.908008
190	0xbf2d081a	-0.67590487
191	0xbf0c99c0	-0.54922104
192	0xbd9294ba	-0.071572736
193	0xbe3f6da6	-0.18694171
194	0x3fbe650c	1.4874587
195	0xbeeaafd2	-0.45837265
196	0x3b729946	0.0037017628
197	0x3c2ed3be	0.0106706
198	0x3f2bdd76	0.671348
199	0xbe67a671	-0.22622086
200	0xba5caf4a	-0.0008418454
201	0xbf45c606	-0.77255285
202	0x3df4db71	0.119559176
203	0xbea21114	-0.31653655
204	0xbf0001b1	-0.5000258
205	0x3e0d28a1	0.1378503
206	0xbdee4aa8	-0.11635333
207	0x3e229a3f	0.15879153
208	0xbffc2d11	-1.9701253
209	0xbd2645c7	-0.04059389
210	0x3da12281	0.07867909
211	0xbe4b3e76	-0.19848046
212	0xbcb3eab4	-0.021962501
213	0xbef99d5a	-0.48752862
214	0x3f2f1e4d	0.6840561
215	0xbf8216c9	-1.0163203
216	0x3ba2a96d	0.004964045
217	0x3ee42f85	0.44567505
218	0x3edb0e64	0.42784417
219	0xbedac9b3	-0.4273201
220	0x3d79c834	0.060981944
221	0x3e0c0c6e	0.13676617
222	0xbecfabee	-0.4056086
223	0xbe2d915f	-0.16949986
224	0x8ab89641	-1.7775075e-32
225	0x0a6247c3	1.0895001e-32
226	0x8ab92cb9	-1.7831675e-32
227	0x07a22339	2.4395753e-34
228	0x8a9e2a46	-1.5230748e-32
229	0x8a93bc06	-1.4226312e-32
230	0x0ac4a3df	1.8935755e-32
231	0x0aa1549b	1.5535561e-32
232	0x0b828b5f	5.028388e-32
233	0x0b805885	4.9436996e-32
234	0x8a67bed7	-1.11581384e-32
235	0x09d0ca36	5.0264337e-33
236	0x0ac37454	1.8821575e-32
237	0x88ac3f3c	-1.036674e-33
238	0x09cc8dee	4.9244684e-33
239	0x8a66b6d2	-1.1108482e-32
240	0x8ba0f672	-6.200057e-32
241	0x8aab858e	-1.6516939e-32
242	0x895ee0ae	-2.6827922e-33
243	0x8a812780	-1.2437106e-32
244	0x8a96e5de	-1.4530941e-32
245	0x0a258a73	7.9705004e-33
246	0x8a9ab009	-1.4895878e-32
247	0x0ad431d3	2.0433599e-32
248	0x8a6129fb	-1.08412516e-32
249	0x8a1ebedd	-7.643321e-33
250	0x888a4875	-8.322607e-34
251	0x0aadf89a	1.6752808e-32
252	0x0a88e8a5	1.3183835e-32
253	0x8a2dc916	-8.367467e-33
254	0x0a9fbc22	1.5381911e-32
255	0x8a54f411	-1.02533325e-32

arith.constant1 f4 [16]
0	0xbd28904d	-0.04115324
1	0xbf823734	-1.0173097
2	0x3f3d9c50	0.7406664
3	0x3d40a566	0.047032736
4	0x3f3e01ea	0.7422167
5	0x3f402bd5	0.7506688
6	0xbdf97fd9	-0.12182588
7	0xbc3afb80	-0.011412501
8	0xbdb1f37d	-0.0868902
9	0xbbbd3ae8	-0.0057748444
10	0x3f13b812	0.57702744
11	0x3ef2fdf5	0.4745938
12	0x3f1c16a0	0.60972023
13	0xbdadc66b	-0.08485111
14	0xbe3a2771	-0.18179108
15	0xb990bb2f	-0.00027605283

arith.constant2 f4 [32, 64]
0	0xbf4c4870	-0.7979803
1	0xc0549386	-3.321504
2	0xbf5baa50	-0.8580675
3	0xb875088a	-5.8420505e-05
4	0xbfe8c820	-1.8186073
5	0x401a3d6f	2.4099996
6	0xbcd7d726	-0.026347708
7	0xc027171a	-2.610785
8	0x3eab1f3b	0.33422264
9	0xbf0c257a	-0.54744685
10	0xc01f146d	-2.4856217
11	0xbe241ade	-0.16025874
12	0xbe3f3f68	-0.18676531
13	0xbc1675db	-0.009183372
14	0xc0bb91b6	-5.861537
15	0x3ff12247	1.8838586
16	0x3f3fdaeb	0.7494342
17	0xc05ab890	-3.4175148
18	0xb9aedc43	-0.00033351974
19	0xbd7a4ab7	-0.06110641
20	0xbd889491	-0.06668962
21	0x3e31f033	0.17376785
22	0xbeab5bb6	-0.33468407
23	0xc04526b2	-3.0804868
24	0xbe14ca20	-0.1453023
25	0x3c343ae6	0.011000371
26	0x3cc8c46a	0.02450772
27	0xbf8b84dc	-1.089992
28	0xbfdaf4a9	-1.7105914
29	0xbf9f2fce	-1.2436464
30	0xbfb24eeb	-1.3930334
31	0xbfb4ac27	-1.4115037
32	0x3a6bfcd2	0.0009002212
33	0xbd2c7f1f	-0.04211342
34	0xc02578c3	-2.5854957
35	0x3ac4507b	0.0014977598
36	0xbddb42db	-0.10706111
37	0xbff34a17	-1.9006985
38	0xbc9bfa45	-0.019040236
39	0xc016d929	-2.3570044
40	0xb91e44a7	-0.00015093629
41	0x3eb9c016	0.36279362
42	0x3e02b1fd	0.1276321
43	0xbdf0c5d3	-0.11756482
44	0xbf805f05	-1.0028998
45	0xc0241cad	-2.5642502
46	0xc054d86b	-3.325709
47	0x3d90011c	0.070314616
48	0x39b06954	0.00033647812
49	0x3e2f44ba	0.17116061
50	0x3dcb2e42	0.09920932
51	0x3f17b154	0.59254956
52	0xbfe57fd5	-1.7929636
53	0x3e0f2a47	0.13980971
54	0x3e11c542	0.14235404
55	0x3e49fe90	0.19726014
56	0xc0023675	-2.0345738
57	0xc02124be	-2.5178676
58	0xc0045cc7	-2.0681627
59	0xc02f0c97	-2.7351434
60	0x3b553a99	0.0032536148
61	0x3d12d505	0.035847683
62	0xbeebabdf	-0.46029565
63	0xbd83d710	-0.06437504
64	0x3e3ff531	0.18745877
65	0xbdfa717f	-0.12228679
66	0xc00cc167	-2.1993043
67	0x3880b383	6.136952e-05
68	0xbfd6536b	-1.6744207
69	0xbfb0e0a3	-1.3818554
70	0x3fb386c0	1.4025497
71	0xbe452f27	-0.19256268
72	0x3ef01de1	0.46897796
73	0xbdafa4e7	-0.085763745
74	0x3d039af4	0.032130197
75	0xbe659d8f	-0.22423385
76	0x3f9fc3f6	1.2481678
77	0x3a87ddbd	0.0010365766
78	0xbf6eb9b3	-0.93252105
79	0x3f31113a	0.6916691
80	0x3efa068f	0.4883313
81	0xbf065558	-0.52473974
82	0x3901cdcf	0.00012379068
83	0xbcab3aa0	-0.020901978
84	0x3c91762b	0.017756542
85	0xbe213d24	-0.1574598
86	0x3e2818aa	0.16415659
87	0xbe585197	-0.21124874
88	0xbe090e09	-0.1338426
89	0xbc86340b	-0.016382238
90	0x3bb71291	0.00558693
91	0xbe297b59	-0.1655096
92	0x3dbf8bde	0.093528494
93	0x3c2ff1ec	0.010738831
94	0x3fa8d3ed	1.3189675
95	0x3e0675a3	0.13130812
96	0xb9c3c1c7	-0.00037337674
97	0xbfc0ebdb	-1.5071977
98	0x3e3597a1	0.17733623
99	0x3ac873a5	0.0015293254
100	0xbc939ad7	-0.01801817
101	0xbecd3610	-0.4008031
102	0x3fdccf62	1.7250788
103	0x3e78b0d5	0.24286206
104	0xbac120a0	-0.0014734454
105	0x3da83e18	0.082149684
106	0xbfd80aae	-1.6878259
107	0x3b007e45	0.0019606513
108	0xbdccf529	-0.10007698
109	0xbc83ebd8	-0.01610367
110	0x3f2a8d4f	0.6662187
111	0xbfb7bbf4	-1.4354234
112	0xb9b6a1a6	-0.00034834183
113	0x3d1fee2c	0.039045498
114	0x3dc647cb	0.09681662
115	0xbe3f3d3a	-0.186757
116	0xbf9111b5	-1.1333529
117	0xbe491728	-0.1963774
118	0x3f13f8aa	0.57801306
119	0xbcd14ce6	-0.025549363
120	0x3d6ac3c2	0.057315595
121	0x3e136099	0.14392318
122	0xbd7590d6	-0.05995258
123	0x3e3a512a	0.18195024
124	0xbaa66078	-0.0012693545
125	0x3f93d9ae	1.1550806
126	0xbf1a87fd	-0.6036375
127	0xbea0481c	-0.31305015
128	0xbd64bed2	-0.055846043
129	0xbfe259e9	-1.7683688
130	0x40dc459e	6.883498
131	0x36e3d331	6.789713e-06
132	0x3e8bb15f	0.2728376
133	0x408fdac0	4.495453
134	0x3f167b5e	0.58781993
135	0xbf28de10	-0.6596384
136	0xbe8fb979	-0.28071192
137	0x408b2c8b	4.3491874
138	0x3fc610f5	1.5473925
139	0x3d0986b4	0.03357573
140	0x3f21d53f	0.6321601
141	0x39f8b62c	0.00047437975
142	0x40083302	2.1281133
143	0xbe9c1395	-0.3048369
144	0x3d23790c	0.03991036
145	0x3e922f66	0.28551787
146	0xb7397d36	-1.1056012e-05
147	0xbbb5de9c	-0.0055502187
148	0xbc154d0a	-0.009112606
149	0xbd88940d	-0.066688634
150	0xbd3e8299	-0.046511266
151	0x4002c835	2.0434697
152	0xbe83ab71	-0.25716737
153	0xba956c72	-0.0011400117
154	0x3a82bec6	0.0009975068
155	0xbe843770	-0.25823545
156	0xbebec27b	-0.37257752
157	0x3e28e55f	0.16493748
158	0xbe3a05c7	-0.18166266
159	0xbdaee76c	-0.08540234
160	0xb8c64af9	-9.4553405e-05
161	0xbec6f8b3	-0.38861617
162	0x3f2fac4d	0.68622285
163	0xb88db2d0	-6.75671e-05
164	0xbe65a24f	-0.22425197
165	0xbca477c5	-0.020076642
166	0x3e8212b1	0.25404885
167	0x3fa9bac5	1.3260123
168	0x38db5392	0.000104583
169	0x3b8c6cc1	0.0042854254
170	0x3ce04437	0.027376277
171	0xbc655bb0	-0.013998911
172	0xbf2db6d9	-0.6785713
173	0x3e8b57c5	0.272154
174	0xbf818051	-1.0117284
175	0xbe806203	-0.25074777
176	0xb9812e34	-0.0002463922
177	0xbc41544c	-0.011799883
178	0x3d828268	0.06372529
179	0x3e276246	0.16346082
180	0x3f461e39	0.77389866
181	0x3cd9b05b	0.02657335
182	0x3f1e59fe	0.6185607
183	0xbd89d1f9	-0.06729502
184	0xbde4bb1d	-0.111685015
185	0xbe498bbb	-0.19682209
186	0xbeb8a970	-0.3606677
187	0x3e57338e	0.2101576
188	0x387abec8	5.9782324e-05
189	0x3f16a8e1	0.5885144
190	0xbe131020	-0.1436162
191	0x3e8f8c43	0.280367
192	0x3f08c538	0.5342593
193	0xbeb86ad7	-0.36019012
194	0xbf997dc6	-1.1991508
195	0xb7b3c6ac	-2.1430977e-05
196	0xbf725bcc	-0.9467132
197	0x3e2ac81c	0.16677898
198	0x3e4ab48a	0.19795433
199	0xbe84b41d	-0.25918666
200	0x3eca0b18	0.3946159
201	0xbeabf8ff	-0.33588406
202	0x3da5b4a2	0.080910936
203	0x3de211eb	0.11038574
204	0x3d264ec3	0.040602457
205	0x3b62e966	0.003462398
206	0xbf94dd9e	-1.1630132
207	0x3faa42d3	1.3301643
208	0xbe9291b5	-0.2862679
209	0x3ea5a055	0.32348886
210	0x37af071b	2.0864934e-05
211	0xbcef2922	-0.029194418
212	0x3d14cd3c	0.03632854
213	0xbd9f1279	-0.07767195
214	0x3e4765d1	0.19472434
215	0xbe0dfa5d	-0.13865037
216	0x3eac84ab	0.33694968
217	0xbbd37ac4	-0.006453844
218	0x3ca17ca9	0.019712763
219	0xbe87803d	-0.26465026
220	0xbd962de5	-0.073329724
221	0x3e811836	0.25213784
222	0xc02ad55f	-2.6692731
223	0x3f18e116	0.59718454
224	0x3ae4a929	0.0017445433
225	0xc014720a	-2.3194604
226	0xbe9995e3	-0.29997167
227	0xba9fe831	-0.0012199936
228	0x3d91c3f4	0.07117453
229	0xbefa8abd	-0.48933974
230	0x3edb47e6	0.42828292
231	0x3ddc7cd2	0.10765995
232	0x36c5dc6d	5.8967184e-06
233	0x3d2f3715	0.04277714
234	0xc017191d	-2.3609078
235	0x3bfc2527	0.0076948586
236	0xbf058333	-0.5215332
237	0xbe964b40	-0.29354286
238	0x3e9c9a23	0.30586347
239	0xc01c203e	-2.439468
240	0x3b52df71	0.0032176638
241	0x3d0fb051	0.035080258
242	0x3da6fc59	0.081536
243	0xbe059e5f	-0.13048695
244	0xbdba158d	-0.09086142
245	0x3dccc7b4	0.09999028
246	0xbea4fbf0	-0.32223463
247	0x3d8bea57	0.06831806
248	0xbecc6ab4	-0.39925158
249	0xbe563f33	-0.20922546
250	0xbefb9ade	-0.49141592
251	0xbe9d3a86	-0.30708712
252	0xba81fb81	-0.0009916873
253	0x3ed73e3b	0.42039666
254	0x3e963c0b	0.29342684
255	0xbe050fff	-0.12994383

arith.constant3 f4 [32]
0	0x3e8ef2b7	0.27919552
1	0x3d56b0ce	0.052414708
2	0xbf25a397	-0.64702743
3	0x3e829aa2	0.255086
4	0x3eba6a0a	0.36409026
5	0x3ed3d46f	0.4137301
6	0x3d581c72	0.052761503
7	0x3d910180	0.07080364
8	0xbeae5761	-0.3405104
9	0xbed1f0c2	-0.41003996
10	0x3dc20d84	0.09475234
11	0x3e94b07b	0.29040894
12	0x3ebb4f1b	0.3658379
13	0x3f4ad920	0.79237556
14	0xbe076340	-0.13221455
15	0x3e48c8ae	0.19607803
16	0xbeb67742	-0.35637861
17	0x3eafe5e3	0.34355077
18	0x3d774da5	0.060376782
19	0xbe42ee00	-0.19036102
20	0x3ed9905e	0.42492956
21	0x3cfca24e	0.030839112
22	0xbe4f0b85	-0.20219238
23	0xbe34877c	-0.17629808
24	0xbefcf701	-0.494072
25	0xbccc8d3b	-0.024969688
26	0xbe400a36	-0.18753895
27	0xbe5afc95	-0.21385415
28	0xbe21e854	-0.15811282
29	0xbdd0d600	-0.10197067
30	0xbdf3dd33	-0.11907425
31	0xbadbb427	-0.0016762064

arith.constant4 f4 [1, 16]
0	0x3bda3420	0.006659046
1	0x3eedd15c	0.4644879
2	0x3eb6de84	0.3571664
3	0x3e3a086e	0.18167278
4	0xbfc01987	-1.500779
5	0x3f3c9c0e	0.7367562
6	0xbedc0e0a	-0.4297946
7	0x3b8784cc	0.0041357037
8	0x3c7b448c	0.015336167
9	0xbee71766	-0.4513504
10	0xbf41eb85	-0.7575
11	0x3f64d137	0.89381737
12	0xbf8fc16a	-1.12309
13	0xbd9158bf	-0.07097005
14	0x3f047328	0.51738214
15	0x3918d951	0.00014576806

arith.constant6 f4 [64]
0	0xbdabe071	-0.08392418
1	0xbd4e9a19	-0.050439928
2	0xbe23ad78	-0.15984142
3	0xbe64a6d9	-0.22329272
4	0xbdbdcce5	-0.09267596
5	0xbcaa68f5	-0.020802
6	0x3e91af45	0.28454033
7	0xbe50a83f	-0.20376681
8	0xbe358e62	-0.17730096
9	0xbe07adf5	-0.13249953
10	0xbd9ee3c1	-0.07758284
11	0xbd7b2d06	-0.061322235
12	0xbc97a45d	-0.018510992
13	0xbe684291	-0.22681643
14	0xbb2de649	-0.0026534966
15	0xbe137713	-0.14400892
16	0xbe4cdb02	-0.2000542
17	0x3dd57043	0.10421803
18	0xbe542b28	-0.20719588
19	0xbd1f1881	-0.038841728
20	0xbd22c18d	-0.039735366
21	0x3ecf99cc	0.40547025
22	0xbd50bd8b	-0.050962012
23	0xbea29319	-0.31752852
24	0xbeb0b7a4	-0.34515107
25	0xbd9124d0	-0.070870996
26	0xbc834edd	-0.016028816
27	0x3df87967	0.12132531
28	0x3cc59fe3	0.024124091
29	0xbecb860e	-0.39750713
30	0xbe16879b	-0.14700167
31	0x3db2ddbf	0.08733701
32	0xbd977e6f	-0.07397162
33	0xbe491873	-0.19638233
34	0xbed8e81e	-0.4236459
35	0xbebdfc77	-0.37106678
36	0x3e45c3fd	0.19313045
37	0xbdbfc506	-0.09363751
38	0x3e9a845a	0.301791
39	0xbb0198b8	-0.0019774865
40	0xbe41bfbf	-0.18920802
41	0xbd5da04e	-0.054107957
42	0xbe4166a4	-0.1888681
43	0xbe295502	-0.16536334
44	0xbee85e70	-0.4538455
45	0xbe00a096	-0.12561259
46	0xbdecdea8	-0.11565906
47	0xbe3ee8c6	-0.18643484
48	0xbbb206f2	-0.005432957
49	0xbd02a837	-0.031898703
50	0xbc23da38	-0.010000758
51	0xbdf9998e	-0.12187491
52	0xbe4ee0e9	-0.20202984
53	0xbd3b1ae1	-0.04567993
54	0x3dabc73a	0.08387609
55	0xbbdc1b7f	-0.006717145
56	0xbe916c1f	-0.28402802
57	0xbe20788f	-0.1567099
58	0x3d5fa6ca	0.05460242
59	0x3bb570f1	0.0055371453
60	0xbdd395e3	-0.10331323
61	0x3e99051d	0.29886714
62	0xbdd4bd15	-0.10387627
63	0xbdf14285	-0.11780266

sequential_1/dense_1/MatMul f4 [64, 15]
0	0x89411cf5	-2.3245145e-33
1	0x8909c6de	-1.6584282e-33
2	0x8927b166	-2.0185306e-33
3	0x877e8256	-1.9147138e-34
4	0x090d5752	1.7013315e-33
5	0x8900ed5c	-1.5519045e-33
6	0x09324049	2.1456197e-33
7	0x89113072	-1.7476519e-33
8	0x8924b2c7	-1.9824843e-33
9	0x8944564f	-2.3633224e-33
10	0x893d394a	-2.2776985e-33
11	0x88d69407	-1.2914458e-33
12	0x89312ad5	-2.132574e-33
13	0x0922c666	1.9593327e-33
14	0x8931c742	-2.139929e-33
15	0x3d5a687e	0.053322308
16	0x3d86f2c6	0.06589274
17	0xbe29accd	-0.16569825
18	0x3d672007	0.056427028
19	0xbe0176d2	-0.12642983
20	0x3dc6828b	0.09692868
21	0xbe8047de	-0.2505483
22	0xbcd26096	-0.025680821
23	0x3b985585	0.0046488666
24	0xbd8bc8a0	-0.068253756
25	0x3e6c29af	0.23062776
26	0x3d7d861d	0.06189548
27	0x3cf20c4e	0.029546883
28	0x3d1690f1	0.03675932
29	0xbd85c409	-0.06531531
30	0xbdb1bc4a	-0.086784914
31	0x3dd966d7	0.10615318
32	0xbe2c23ea	-0.16810575
33	0x3d7b9e80	0.061430454
34	0xba46366c	-0.000756121
35	0x3d897578	0.067118585
36	0x3de4dfb2	0.11175479
37	0x3e254f64	0.16143566
38	0x3e4bf122	0.19916204
39	0xbe576ca8	-0.21037543
40	0xbe94e305	-0.29079452
41	0xbd2d4f97	-0.04231223
42	0x3cdcf8a0	0.026974022
43	0x3ddc7eba	0.10766359
44	0x3c51ef9d	0.012813476
45	0x89461453	-2.384294e-33
46	0x894a149e	-2.432456e-33
47	0x894a6edc	-2.4366991e-33
48	0x89422ee7	-2.3373954e-33
49	0x8928a0a2	-2.0297794e-33
50	0x090057b9	1.5448687e-33
51	0x89403733	-2.3137114e-33
52	0x892e461b	-2.0977452e-33
53	0x89344ffb	-2.1704319e-33
54	0x892ff8e3	-2.1181885e-33
55	0x09651ba1	2.7577863e-33
56	0x092683e8	2.0043545e-33
57	0x88b175f5	-1.0680532e-33
58	0x094aed32	2.4426394e-33
59	0x8940d88c	-2.321298e-33
60	0xbd8162be	-0.06317662
61	0x3acae1ac	0.0015478632
62	0xbe26c9c2	-0.16287902
63	0x3d9ee2aa	0.077580765
64	0xbd2cc631	-0.042181198
65	0xbcad9ed1	-0.021193894
66	0xbe36a2ea	-0.17835584
67	0x3e0871d6	0.13324675
68	0xbced1508	-0.028940693
69	0x3dd396bc	0.10331485
70	0xbe01b7e6	-0.12667808
71	0x3d953789	0.07285983
72	0x3d00599f	0.03133547
73	0xbd0d0fcf	-0.034438904
74	0x3de8dee7	0.1137064
75	0xbd97264d	-0.07380352
76	0x3d69ee3d	0.057111967
77	0x3d0dd9ba	0.03463147
78	0xbde10fc1	-0.10989333
79	0xbe8224fd	-0.25418845
80	0xbd54e619	-0.05197725
81	0xbe7bd3b1	-0.24592473
82	0x3e90bd60	0.28269482
83	0x3de5d564	0.11222342
84	0xbdf22f36	-0.11825411
85	0x3c15f152	0.0091517735
86	0xbe4bba21	-0.19895221
87	0x3e110480	0.14161873
88	0xbe0d902d	-0.1382453
89	0xbd23ba40	-0.039972544
90	0x3ac7c3cb	0.0015240846
91	0x39751310	0.00023372122
92	0xbc31aa70	-0.010843858
93	0xbd6b3478	-0.057423085
94	0xbd0b5545	-0.034016866
95	0xbb23f06c	-0.0025015129
96	0xbaf5cd2a	-0.001875316
97	0x3b95566a	0.0045574205
98	0xba3d9287	-0.0007231612
99	0x3bb0c420	0.0053944737
100	0xbb2ca4b7	-0.0026343295
101	0x3cec4456	0.028841179
102	0x3c42fe6d	0.01190148
103	0x3c0dffc9	0.008666941
104	0xbf66e438	-0.90191984
105	0xbd6e4d89	-0.058179412
106	0xbc94dc07	-0.018171323
107	0xbb3e8c0f	-0.002907518
108	0xbdb9b579	-0.09067816
109	0xbd8700a0	-0.06591916
110	0xbe1aef37	-0.15130316
111	0xbd2c4ea1	-0.042067174
112	0x3de83523	0.1133826
113	0x3e3c0c88	0.18364155
114	0x3da33130	0.07968366
115	0xbd5ecb3c	-0.05439304
116	0xbe6dba3e	-0.23215577
117	0xbe27f61b	-0.16402476
118	0x3e55bba0	0.20872355
119	0xbb0d1617	-0.002152806
120	0x8919f1fc	-1.8530486e-33
121	0x0968dfea	2.8031268e-33
122	0x0961cd7f	2.7180014e-33
123	0x895b59a4	-2.6403315e-33
124	0x09d559d4	5.136236e-33
125	0x09314ad1	2.1340779e-33
126	0x092d9a37	2.0896629e-33
127	0x09360795	2.1911018e-33
128	0x89224360	-1.953172e-33
129	0x893a0630	-2.2391845e-33
130	0x0955a02e	2.5714259e-33
131	0x093d4f44	2.2787318e-33
132	0x0923c647	1.971364e-33
133	0x892b9651	-2.0654055e-33
134	0x89614902	-2.7117718e-33
135	0xbd89fdc7	-0.06737857
136	0x3dc85064	0.09780958
137	0xbde745fc	-0.11292645
138	0xbb01e646	-0.0019821092
139	0x3b844527	0.004036564
140	0xbcd095d1	-0.025462063
141	0xbd39a0f4	-0.045319512
142	0x3eabd25e	0.33558935
143	0x3d01d022	0.03169263
144	0xbd7d2991	-0.06180722
145	0x3d0185fa	0.03162191
146	0xbd3fc70d	-0.04682069
147	0x3d5ae144	0.053437486
148	0xbdef7edc	-0.116941184
149	0xbd0e9cf7	-0.034817662
150	0xbd20e651	-0.039282147
151	0x3e3c8ba3	0.18412642
152	0xbdc09652	-0.09403671
153	0x3d5ddafb	0.054163914
154	0xbd9728e4	-0.07380846
155	0xbc9da6a2	-0.019244496
156	0x3d000386	0.03125336
157	0xbc3f543a	-0.011677796
158	0xbd239474	-0.039936498
159	0xbdb448d0	-0.088029504
160	0xbe2440b2	-0.16040304
161	0x3de1c178	0.11023229
162	0x3de129c8	0.10994297
163	0x3da9191a	0.08256741
164	0xbe8075c6	-0.25089854
165	0x094c5616	2.4596084e-33
166	0x895ec714	-2.6815884e-33
167	0x892bc389	-2.0675316e-33
168	0x88d985af	-1.3091641e-33
169	0x097db55d	3.0539044e-33
170	0x894f3a0a	-2.4944008e-33
171	0x095f8421	2.6904775e-33
172	0x0966318f	2.7708545e-33
173	0x095e2ab7	2.6742362e-33
174	0x0953c092	2.5488747e-33
175	0x89238384	-1.968225e-33
176	0x89116e37	-1.7505563e-33
177	0x09293d92	2.0371585e-33
178	0x8924eca2	-1.9852046e-33
179	0x094ffa4a	2.5034404e-33
180	0xbd8d2ad1	-0.06892932
181	0x3d1296ba	0.035788275
182	0xbdc61be2	-0.09673287
183	0xbb8e6114	-0.0043450687
184	0xbc8f813e	-0.017517682
185	0xbd3ba09f	-0.045807477
186	0x3dc427a1	0.09577871
187	0xbbe7f611	-0.007078894
188	0xbd32e032	-0.04367084
189	0xbe902f32	-0.28161007
190	0x3bf1e1e4	0.0073816646
191	0xbd00871b	-0.031378847
192	0x3c2b4194	0.010452647
193	0xb8ef2f9c	-0.00011405276
194	0x3c331687	0.010930664
195	0x897357c1	-2.9291323e-33
196	0x894f2e58	-2.493851e-33
197	0x096563cb	2.7611795e-33
198	0x8923c82f	-1.9714537e-33
199	0x8918329a	-1.8320127e-33
200	0x8957767d	-2.5935397e-33
201	0x08ff46e2	1.5363919e-33
202	0x8936f801	-2.2024064e-33
203	0x896ca059	-2.8482862e-33
204	0x8929fddd	-2.0462001e-33
205	0x89387250	-2.2201944e-33
206	0x89265850	-2.0023048e-33
207	0x09584107	2.603063e-33
208	0x895f54e5	-2.6882566e-33
209	0x8957b600	-2.596526e-33
210	0xbe1a3711	-0.15060069
211	0x3da74489	0.08167369
212	0x3e04a1f1	0.129524
213	0x3e5a25be	0.2130346
214	0xbda1e55d	-0.07905076
215	0xbe763c1b	-0.24046366
216	0xbdb82c79	-0.089928575
217	0xbc3cf91e	-0.011534004
218	0xbe39b193	-0.18134145
219	0xbe3c0e00	-0.18364716
220	0x3e14b905	0.14523704
221	0x3e493479	0.19648923
222	0xbc3767ea	-0.011194209
223	0xbd7a5eca	-0.061125554
224	0xbc197277	-0.009365669
225	0x89257bc2	-1.9919343e-33
226	0x096e61e4	2.8694236e-33
227	0x093f0bb7	2.2996297e-33
228	0x891cb9c4	-1.8865164e-33
229	0x8922d03b	-1.959795e-33
230	0x8971246e	-2.9026449e-33
231	0x893cab87	-2.2710329e-33
232	0x09307517	2.1240285e-33
233	0x093ecb44	2.2965993e-33
234	0x896219e4	-2.7215934e-33
235	0x88fc8ee5	-1.5200293e-33
236	0x8938dc59	-2.2251801e-33
237	0x8935ce92	-2.1884211e-33
238	0x890f3957	-1.723996e-33
239	0x0923ec37	1.9731479e-33
240	0x89423748	-2.3377894e-33
241	0x895b5162	-2.6399432e-33
242	0x097c8a01	3.0398286e-33
243	0x890e4942	-1.7127074e-33
244	0x892f9973	-2.113701e-33
245	0x895dea1f	-2.671199e-33
246	0x09014c9c	1.5563832e-33
247	0x893791b3	-2.2096331e-33
248	0x894c05d4	-2.4558347e-33
249	0x8938efd8	-2.2260968e-33
250	0x893ecb21	-2.2965929e-33
251	0x890f8ebf	-1.7280118e-33
252	0x0942115a	2.336006e-33
253	0x893c8bb3	-2.2695363e-33
254	0x89575485	-2.5919425e-33
255	0xbd87b570	-0.06626403
